LeNet/logs/CIFAR10LeNet.pth (torch, 488003 bytes, 10 tensors)

conv1.weight f4 [16, 3, 5, 5]
0	0x3db65380	0.08902645
1	0xbd3deeb5	-0.046370227
2	0x3e0f61ac	0.14002103
3	0x3e09df63	0.13464122
4	0x3d966cdd	0.07344983
5	0xbdaf4d58	-0.08559674
6	0xbc385956	-0.011251768
7	0x3ce9f89d	0.02856093
8	0xbdd72b3d	-0.10506294
9	0x3c067e9a	0.008208895
10	0x3d5fc04f	0.05462676
11	0xbe0a0a0e	-0.13480398
12	0xbddd61b8	-0.10809654
13	0xbddc3b75	-0.10753528
14	0xbe3e71e5	-0.18598135
15	0x3d03a20d	0.032136966
16	0x3dee5454	0.11637178
17	0x3cd40951	0.025883349
18	0xbdf98405	-0.12183384
19	0xbd57b796	-0.052665316
20	0xbe128883	-0.14309888
21	0xbe00ab24	-0.12565285
22	0xbd4a6bf5	-0.049419362
23	0xbdf92b7c	-0.12166497
24	0xbb8edd10	-0.004359849
25	0x3d985ab8	0.07439178
26	0x3dd71dfe	0.105037674
27	0xbc158127	-0.009125031
28	0x3df9af6a	0.12191661
29	0x3dcc13d3	0.09964719
30	0xbd864ce6	-0.06557636
31	0xbd342bb4	-0.04398699
32	0xbd19dc90	-0.03756386
33	0xbd32e946	-0.043679498
34	0x3d5b9211	0.053606097
35	0x3d8cfaeb	0.06883796
36	0x3d75e852	0.06003601
37	0xbc21a660	-0.009866327
38	0x3dada93d	0.08479545
39	0x3cad78c6	0.021175753
40	0xbd97d777	-0.074141435
41	0xbd12e9cf	-0.03586751
42	0x3d699561	0.057027224
43	0x3da291b2	0.079379454
44	0x3d5ca0bb	0.053864222
45	0xbe483104	-0.19549948
46	0xbe39eead	-0.18157454
47	0xbe412ac2	-0.18863967
48	0x3c9b4372	0.018953059
49	0xbda34c7d	-0.07973573
50	0x3a1e5ee7	0.0006041363
51	0xbd0ce4b1	-0.034397785
52	0x3e429bce	0.19004747
53	0x3e2bb7f8	0.16769397
54	0x3e39c478	0.18141353
55	0xbda602c8	-0.08105999
56	0x3d627c0f	0.055294093
57	0xbd24d09b	-0.040238004
58	0x3dbf3517	0.09336298
59	0x3db90cbc	0.09035632
60	0xbd8b3ba0	-0.06798482
61	0x3d0a3a2b	0.03374688
62	0xba786464	-0.00094754086
63	0x3d9002f9	0.07031817
64	0x3d1bbe8f	0.038023528
65	0xbdc8f11c	-0.09811613
66	0xbdba976c	-0.09110913
67	0xbdd0064e	-0.101574525
68	0x3deb219b	0.11481019
69	0x3daddbec	0.084892124
70	0xbd763369	-0.060107622
71	0xbb2f3934	-0.0026736977
72	0xbe4328d2	-0.1905854
73	0xbd9cadd5	-0.07650343
74	0x3dd9bcf3	0.10631742
75	0xbd81e62a	-0.063427284
76	0xbd878937	-0.066179685
77	0xbe237f6c	-0.15966576
78	0xbdc8c38a	-0.09802921
79	0xbbdd7c56	-0.0067592068
80	0x3dcf945e	0.10135721
81	0xbe000b40	-0.12504292
82	0xbe14173f	-0.14461993
83	0xbd2359c8	-0.039880544
84	0xbcc8f13d	-0.024529094
85	0xbd9177de	-0.07102941
86	0xbe02c97e	-0.12772176
87	0xbde4c176	-0.11169712
88	0xbd236ff2	-0.03990168
89	0xbd9c74a7	-0.07639437
90	0xbcc3c99e	-0.02389985
91	0xbe098c50	-0.13432431
92	0xbdcf86ee	-0.10133158
93	0xbd6d9ab2	-0.058008857
94	0xbd7a6c30	-0.061138332
95	0xbd0cc3e9	-0.034366522
96	0x3cd1ee4c	0.025626324
97	0xbd8289bc	-0.06373927
98	0xbd8e278a	-0.06941135
99	0xbd82dc22	-0.06389643
100	0x3dbcd6a3	0.09220626
101	0xbda25747	-0.07926803
102	0x3d83b48f	0.06430923
103	0xbdad3e35	-0.08459131
104	0x3d250a25	0.040292878
105	0x3c94123b	0.0180751
106	0xbdae08ec	-0.084977955
107	0xbdbc9c75	-0.09209529
108	0x3d3cbdb0	0.046079338
109	0xbc256c54	-0.010096628
110	0xbdd1d045	-0.102448024
111	0x3c117272	0.008877384
112	0xbd80dd3b	-0.06292196
113	0xbd41ffd0	-0.047363102
114	0x3dd76f90	0.10519326
115	0xbe0b079b	-0.1357712
116	0xbdec62b0	-0.11542261
117	0xbdb4a285	-0.08820061
118	0xbc7ef5df	-0.01556155
119	0xbc41c368	-0.011826374
120	0x3c0060fc	0.007835623
121	0x3d032455	0.03201707
122	0x3d8fba02	0.070179
123	0xbe21ea7a	-0.15812102
124	0xbd89aac1	-0.06722022
125	0xbb9f0d5a	-0.0048538866
126	0xbd8260e3	-0.06366136
127	0x3d955b06	0.07292752
128	0xbcb746c3	-0.022372609
129	0xbc2599bf	-0.010107457
130	0x3e026617	0.12734257
131	0x3e0bd05b	0.136537
132	0x3a84afc2	0.0010123181
133	0x3e1bacb2	0.15202597
134	0x3e16e654	0.147363
135	0xbd943206	-0.07236104
136	0x3cc2c7d7	0.023776932
137	0x3e403084	0.18768507
138	0x3df34e40	0.118801594
139	0x3db4fc93	0.08837237
140	0x3da90eea	0.08254798
141	0x3e06aad1	0.13151099
142	0x3dd45b1a	0.10368939
143	0x3e3cbc19	0.18431129
144	0x3d644e62	0.055738814
145	0x3e13beb2	0.14428213
146	0x3e5a9255	0.21344884
147	0x3e69aad6	0.22819075
148	0x3e537984	0.20651823
149	0x3d28676b	0.041114252
150	0xbc5d4801	-0.013505937
151	0x3d62df65	0.055388827
152	0x3e12962a	0.14315096
153	0x3e0f1b0a	0.13975158
154	0xbd166ba2	-0.03672374
155	0x3d5fdb9c	0.054652795
156	0x38f149a8	0.00011505495
157	0x3c3b6c3e	0.011439381
158	0xbdcf707e	-0.10128878
159	0xbe198f17	-0.1499599
160	0xbdb3f56f	-0.08787047
161	0x3dd0654c	0.10175571
162	0xbc9e808d	-0.019348407
163	0x3e04b78e	0.12960646
164	0x3debe27b	0.11517807
165	0x3de9791d	0.11400054
166	0xbdc2ee26	-0.095180795
167	0x3bf92a75	0.007603938
168	0x3e1eada4	0.15495926
169	0x3e4c4909	0.19949736
170	0xbe210cbf	-0.15727518
171	0xbe6aaaee	-0.22916767
172	0xbb6c5e07	-0.0036066787
173	0xbe837539	-0.2567537
174	0xbde2d14e	-0.11075078
175	0xbdc3cb68	-0.09560281
176	0xbdb800e2	-0.089845434
177	0x3d50ac47	0.050945546
178	0xbd69fc43	-0.05712534
179	0x3d71aa5f	0.05900037
180	0xbd566212	-0.05233962
181	0xbe4c9238	-0.19977653
182	0xbe08f8c5	-0.13376148
183	0xbe49728b	-0.19672601
184	0xbde861d6	-0.11346786
185	0x3d07bd6c	0.03313963
186	0x3dda3b11	0.10655797
187	0x3e2dea4b	0.16983907
188	0x3d66abf2	0.056316324
189	0x3d9909ce	0.07472573
190	0x3cf9cb97	0.030492587
191	0x3cac074e	0.020999577
192	0x3e3efca9	0.1865107
193	0x3d150fb4	0.03639193
194	0x3e3cb10a	0.1842691
195	0xbd118cdc	-0.035534725
196	0xbe357472	-0.17720202
197	0xbd6eb7ba	-0.058280684
198	0xbe882814	-0.26593077
199	0xbe2170ac	-0.15765637
200	0x3dbccf31	0.09219206
201	0x3d0a09e0	0.033700824
202	0x3da96d7f	0.08272838
203	0x3d811df1	0.06304539
204	0x3dc881f6	0.09790413
205	0x3d3ec18e	0.046571307
206	0xbdff644c	-0.12470302
207	0xbe4f1c18	-0.2022556
208	0xbe5eed82	-0.2177029
209	0xbe0f3c15	-0.13987763
210	0x3e131ed1	0.14367224
211	0x3db6db84	0.08928588
212	0x3dc76a2a	0.09737046
213	0xbae0fa48	-0.0017164433
214	0x3ddabd47	0.10680633
215	0x3e1bd7f3	0.15219097
216	0xbb4009f2	-0.0029302803
217	0x3e42a151	0.1900685
218	0x3de90042	0.11377002
219	0x3bfa6d42	0.007642419
220	0xbd0b949a	-0.034077264
221	0xbe2629aa	-0.16226831
222	0x3a8a84e3	0.0010568168
223	0xbe2f017d	-0.17090411
224	0xbe0802e0	-0.13282347
225	0xbcd3b6a3	-0.025843924
226	0x3d3de13d	0.046357382
227	0xbdc93a68	-0.09825593
228	0xbcf6ea5f	-0.030141054
229	0xbdb8ebd5	-0.090293564
230	0xbe25e29a	-0.16199723
231	0x3d759949	0.059960637
232	0xbd84d933	-0.0648674
233	0xbe1c40f3	-0.15259151
234	0xbdc5e3f4	-0.09662619
235	0xbdb15dad	-0.08660445
236	0xbe272be3	-0.16325335
237	0x3d98acf1	0.07454861
238	0xbe3d57c5	-0.18490513
239	0x3d85e296	0.065373585
240	0xbcde1355	-0.027108828
241	0x3d1df129	0.038560066
242	0xbe1d0588	-0.15334141
243	0xbd4c00c7	-0.04980543
244	0x3d353b3b	0.04424594
245	0x3d4391f9	0.047746632
246	0x3dc863a7	0.09784632
247	0xbda2d235	-0.0795025
248	0xbd014738	-0.03156206
249	0xbdbad354	-0.09122339
250	0x3d6b6b4b	0.05747537
251	0x3ce8119d	0.028328711
252	0x3d17cea0	0.037062287
253	0x3db84500	0.08997536
254	0x3dfa481a	0.122207835
255	0x3e1e1cc1	0.15440656

conv1.bias f4 [16]
0	0xbe42f1e8	-0.19037592
1	0x3d8a1b2c	0.06743464
2	0xbdebefac	-0.11520323
3	0x3e075865	0.13217314
4	0x3c442979	0.0119727785
5	0x3c3a55d3	0.011373001
6	0xbeeb5b6e	-0.45968193
7	0xbdaf2135	-0.085512556
8	0xbe633c72	-0.22191027
9	0x3dbdf3e7	0.09275036
10	0xbdb3ccd6	-0.08779304
11	0xbb2bc029	-0.0026207066
12	0x3cfcef90	0.030875951
13	0xbd4020f4	-0.046906427
14	0xbdfdd156	-0.12393443
15	0x3d754ba2	0.059886582

conv2.weight f4 [32, 16, 5, 5]
0	0xbdc2a54d	-0.09504185
1	0xbe64c997	-0.22342525
2	0xbc0c3776	-0.008558145
3	0x3e05f010	0.13079858
4	0x3e4003f7	0.18751512
5	0x3c884b7c	0.016637556
6	0xbe93a196	-0.28834218
7	0xbe764f52	-0.24053696
8	0xbd655322	-0.055987485
9	0x3debad95	0.115077175
10	0x3d8a8e49	0.0676542
11	0xbd46065f	-0.04834592
12	0xbde3e04c	-0.111267656
13	0xbe684f55	-0.22686513
14	0x3d3d5042	0.046219118
15	0x3d9345a8	0.0719102
16	0x3cc8395e	0.024441417
17	0xbe0c6140	-0.13708973
18	0xbeb115cd	-0.34586945
19	0xbe6ce656	-0.23134741
20	0x3ddb77da	0.10716219
21	0x3da75213	0.08169951
22	0xbda91b73	-0.08257189
23	0xbe2aebee	-0.16691563
24	0xbd8789a7	-0.06618052
25	0x3daa8c02	0.083274856
26	0x3ce63d47	0.028105391
27	0xbd2be472	-0.04196591
28	0xbe877040	-0.26452827
29	0xbea207c0	-0.31646538
30	0x3e887131	0.26648858
31	0x3e4744da	0.19459859
32	0xbd049e13	-0.032377314
33	0xbeb61bfc	-0.35568225
34	0xbee8e98f	-0.4549069
35	0x3e918d12	0.2842794
36	0x3e1e9ac2	0.15488723
37	0xbe2a863b	-0.16652767
38	0xbedd089e	-0.43170637
39	0xbea9994d	-0.33124772
40	0x3e9822c4	0.29714024
41	0x3d92013d	0.071291424
42	0xbe6620f2	-0.22473505
43	0xbe9b34fc	-0.3031386
44	0xbe68730e	-0.2270014
45	0x3ec620eb	0.3869699
46	0x3e09438f	0.13404678
47	0x3d54dbd4	0.051967457
48	0xbcd1be62	-0.025603477
49	0xbd60f613	-0.054922175
50	0xbbe198d5	-0.006884674
51	0x3d1d8c7f	0.038464066
52	0xbbb943b7	-0.005653824
53	0x3d50d8bc	0.050987944
54	0x3d5d7502	0.054066665
55	0x3d1bd1f6	0.03804203
56	0xbc4dee8b	-0.01256908
57	0xbc8702df	-0.016480861
58	0xbda9533b	-0.08267828
59	0xbd3aab6d	-0.04557364
60	0x3e0df517	0.13863026
61	0x3dd078d1	0.10179294
62	0x3cc9e47c	0.024645083
63	0xbe3b2e65	-0.18279417
64	0xbec1570d	-0.37761727
65	0xbc892d5e	-0.016745266
66	0xbd231e11	-0.039823595
67	0x3cdd2066	0.026992988
68	0xbd9d9e2c	-0.076961845
69	0xbe775331	-0.24152829
70	0x3c779ed3	0.01511355
71	0x3d24cb8e	0.040233187
72	0xbb2a3448	-0.0025971103
73	0xbe56009a	-0.20898667
74	0xbe5e6e8d	-0.2172186
75	0x3c47c64e	0.012193276
76	0xbdaf812d	-0.0856956
77	0xbdd7282f	-0.10505711
78	0xbcc9412b	-0.024567207
79	0x3d6f5e44	0.058439508
80	0xbc38080c	-0.011232387
81	0xbe4325ab	-0.19057338
82	0xbd10d7be	-0.035361998
83	0xbc8504fd	-0.01623773
84	0x3d8829e9	0.06648619
85	0xbdc729f4	-0.09724799
86	0xbe3a7356	-0.1820806
87	0xbdb0cc7c	-0.08632752
88	0x3d9c9fa3	0.07647636
89	0x3e437173	0.19086246
90	0xbe53ce18	-0.20684087
91	0xbd96269d	-0.07331584
92	0xbe008f51	-0.12554671
93	0x3d8d7f3a	0.06909032
94	0x3e192e3b	0.14959042
95	0xbd9bc25e	-0.07605432
96	0xbd686572	-0.05673737
97	0xbc8bb787	-0.017055286
98	0x3d3d9ace	0.04629021
99	0x3e0ab091	0.13543917
100	0x3e92d328	0.28676724
101	0x3e432077	0.19055353
102	0xbc7df228	-0.015499629
103	0xbd958b18	-0.07301921
104	0x3e2a8b98	0.16654813
105	0x3e388c75	0.1802233
106	0x3e30c4d6	0.17262587
107	0x3d18d635	0.03731366
108	0xbdc5e960	-0.096636534
109	0x3d69233b	0.056918364
110	0x3da3c508	0.07996565
111	0x3cbb08fb	0.02283143
112	0xbd202e6c	-0.03910677
113	0xbd5f48c2	-0.054512747
114	0x3d810697	0.06300085
115	0x3bcfbe19	0.0063398
116	0xbd0905c2	-0.033452757
117	0x3cc9d0b5	0.024635652
118	0x3c7b07cd	0.015321684
119	0xbd9c1a87	-0.07622247
120	0x3e06e8c6	0.13174734
121	0x3d53df41	0.051726583
122	0xbd87620d	-0.066104986
123	0x3d9c36f4	0.07627669
124	0x3e0e60ef	0.13904165
125	0xbe43b2ac	-0.19111127
126	0xbe71056a	-0.23537222
127	0xbe502190	-0.20325303
128	0x3deb133a	0.114782766
129	0x3e3931c1	0.18085386
130	0xbd30474c	-0.043036744
131	0x3d0ac038	0.03387472
132	0xbe039172	-0.12848452
133	0xbe0ede0c	-0.13951892
134	0x3d1eb775	0.038749177
135	0x3def5d11	0.11687673
136	0x3d3ac8af	0.045601543
137	0xbd8ffcd2	-0.070306435
138	0x3ca36132	0.019943807
139	0xbdc8f0a8	-0.098115265
140	0xbd76a715	-0.060217936
141	0x3e00f87f	0.12594794
142	0xbd7c0b02	-0.061533935
143	0xbc40658d	-0.011742962
144	0x3d927523	0.07151248
145	0xbe08e6d6	-0.13369307
146	0xbcac50b8	-0.021034583
147	0xbdc46301	-0.09589196
148	0xbcef8633	-0.029238796
149	0x3ddf36a1	0.108990915
150	0xbd9bcd7b	-0.07607552
151	0xbe373165	-0.17889936
152	0xbda0a5eb	-0.07844146
153	0x3df077be	0.11741589
154	0x3e17ba89	0.14817251
155	0x3d722714	0.0591193
156	0xbd69247b	-0.056919556
157	0x3d2fd12b	0.042924087
158	0x3d842499	0.06452293
159	0x3da54220	0.08069253
160	0xbbb356f6	-0.005473013
161	0xbc661983	-0.014044168
162	0x3c1e38c8	0.009657092
163	0xbb816e28	-0.003949899
164	0xbca69914	-0.020336665
165	0x3d2141f2	0.03936953
166	0x3c8474d6	0.016168993
167	0x3c1fccd9	0.009753429
168	0xbd286aec	-0.041117594
169	0xbd1744c0	-0.0369308
170	0x3da5031e	0.08057235
171	0x3c561592	0.013066666
172	0x3cab963a	0.020945657
173	0x3cb30de0	0.021857202
174	0x3cf7c373	0.030244565
175	0xbd886ab1	-0.06660975
176	0xbc88e178	-0.016709074
177	0xbc508000	-0.01272583
178	0x3cd896d9	0.026439117
179	0xbdda856a	-0.10669978
180	0x3d975758	0.073897064
181	0x3cd741d0	0.026276499
182	0xbe67a1f2	-0.22620371
183	0xbc29d85a	-0.010366524
184	0x3c7526c0	0.014962852
185	0x3c6a11d5	0.014286478
186	0xbe35a009	-0.1773683
187	0xbe45dcd0	-0.19322515
188	0xbdcdd6ba	-0.100507215
189	0xbccbb3c3	-0.02486599
190	0xbcc62716	-0.02418856
191	0xbd060084	-0.032715335
192	0xbdc69b3e	-0.09697579
193	0xbd70cd35	-0.05878945
194	0x3d0b86d8	0.034064144
195	0xbd9dd6e4	-0.07707003
196	0x3cfbd38f	0.030740527
197	0x3d044e13	0.03230102
198	0x3cb5d88c	0.022197984
199	0x3d2f11f3	0.042741727
200	0x3db6d2ed	0.0892695
201	0x3ca8bd9e	0.020598229
202	0x3cac76f9	0.021052824
203	0xbdd12a86	-0.10213189
204	0xbe63a545	-0.22231014
205	0x3e007006	0.12542734
206	0x3e08fbf2	0.1337736
207	0xbcc03bd6	-0.023466032
208	0xbe718f28	-0.23589766
209	0xbe58231a	-0.2110714
210	0x3e7dc77b	0.24783127
211	0x3e308b40	0.1724062
212	0xbd888168	-0.06665307
213	0xbe77fca2	-0.24217466
214	0xbe85698f	-0.26057097
215	0x3e78b7c8	0.24288857
216	0x3de7b08d	0.11312971
217	0xbd77c0ee	-0.060486726
218	0xbe7c8b92	-0.24662617
219	0xbe2a9a1f	-0.16660355
220	0x3e5780e1	0.21045257
221	0x3e0109ed	0.12601443
222	0x3d2d00c8	0.042237073
223	0x3d497f9c	0.049193963
224	0xbcc1f0a6	-0.02367432
225	0xbe1fefee	-0.1561887
226	0xbd1d4fb8	-0.038406104
227	0x3dbb2069	0.09137041
228	0x3d701991	0.058618132
229	0x3d012cbd	0.031536806
230	0xbe5b765b	-0.21431868
231	0x3ca358c1	0.019939782
232	0x3e08f2ad	0.13373823
233	0x3db0909a	0.086213306
234	0x3d852843	0.0650182
235	0xbe165725	-0.1468168
236	0xbc304b7e	-0.010760186
237	0x3c8f9759	0.017528223
238	0x3e297391	0.16547991
239	0x3df19372	0.11795701
240	0xbd02a03c	-0.031891093
241	0xbd57ddfb	-0.05270193
242	0xbc93c874	-0.01803992
243	0x3d8b600b	0.06805428
244	0x3d9291e4	0.07156733
245	0xbce1e816	-0.027576488
246	0xbdf48e25	-0.119411744
247	0xbb4d1e88	-0.0031298716
248	0x3c9c5f71	0.019088479
249	0xbc80d185	-0.015724907
250	0xbdb8b00d	-0.09017954
251	0xbd4344a8	-0.047672898
252	0xbda1b0b2	-0.0789503
253	0x3d11a6a9	0.03555933
254	0xbd308388	-0.043094188
255	0xbd0e91ae	-0.0348069

conv2.bias f4 [32]
0	0x3e19f619	0.15035285
1	0x3d39a598	0.045323938
2	0x3e5a3afd	0.21311565
3	0xbd937d26	-0.072016045
4	0xbd87652c	-0.06611094
5	0x3ec9ba3d	0.393999
6	0xbe9c0310	-0.30471087
7	0xbca3f5a5	-0.020014593
8	0xbe1b825f	-0.15186451
9	0xbc14aa61	-0.009073825
10	0xbc60532f	-0.0136917075
11	0x3e4830b1	0.19549824
12	0xbd6009d3	-0.05469687
13	0xbd8e6637	-0.0695309
14	0x3c7a08a5	0.01526085
15	0xbea9fc0d	-0.33200112
16	0xbde2fb53	-0.110830925
17	0x3c4330df	0.011913507
18	0x3ee6708b	0.45007738
19	0xbd943561	-0.07236744
20	0x3e3c4a87	0.18387805
21	0xbe75a4f6	-0.23988709
22	0xbc17bade	-0.009260861
23	0xbd69eab0	-0.05710858
24	0xbe3d6398	-0.18495023
25	0x3e702e51	0.23455168
26	0x3e3d1f57	0.18468986
27	0xbe43307a	-0.19061461
28	0x3f1e52c7	0.6184506
29	0xbee0a057	-0.4387233
30	0x3e069240	0.13141727
31	0x3f2c974c	0.6741836

fc1.weight f4 [120, 800]
0	0x3da7a234	0.08185235
1	0x3db895b5	0.09012929
2	0xbe45ab1f	-0.19303559
3	0xbddd4b0a	-0.10805328
4	0xbcf01fff	-0.029312132
5	0xbbb5b50c	-0.005545264
6	0xbde12f1f	-0.10995316
7	0xbd448de4	-0.04798688
8	0x3da38147	0.07983642
9	0x3c2cb32d	0.010540766
10	0x3bb288d7	0.0054484415
11	0x39394c51	0.00017671405
12	0x3d8476c8	0.06467968
13	0x3e72bcb2	0.23704794
14	0x3d09723f	0.03355622
15	0x3de23918	0.11046046
16	0x3caa0eb9	0.020758973
17	0xbd0dd413	-0.034626078
18	0x3da436f2	0.080182925
19	0x3de848a9	0.11341984
20	0x3dcd9233	0.10037651
21	0x3d456965	0.048196215
22	0xbcd75516	-0.02628569
23	0x3deb686a	0.11494525
24	0x3e150f54	0.14556628
25	0x3a8454b8	0.0010096049
26	0xbe6627df	-0.22476147
27	0xbdd83641	-0.10557223
28	0xbe16a444	-0.147111
29	0xbdf0eee2	-0.11764313
30	0x3ded71a4	0.11593941
31	0x3b887022	0.004163758
32	0x3ddc8e3d	0.10769317
33	0x3dfe4a11	0.12416471
34	0xbd9fa40a	-0.0779496
35	0x3e137460	0.14399862
36	0x3c804b9c	0.015661053
37	0x3df9ab0d	0.121908285
38	0x3e8047fb	0.25054917
39	0x3e2bf1eb	0.16791503
40	0x3d8b441f	0.068001024
41	0xbd3f065d	-0.046636928
42	0x3e619e6f	0.22033094
43	0x3e731471	0.23738267
44	0x3df28a2e	0.11842762
45	0x3d26535d	0.040606845
46	0x3d892cc3	0.06697991
47	0x3ddf7492	0.10910906
48	0x3e361830	0.17782664
49	0x3e198d6c	0.14995354
50	0xbe02ef0c	-0.12786502
51	0xbd19e615	-0.03757294
52	0xbd2f7233	-0.04283352
53	0x3d6df309	0.058093105
54	0x3e138f8d	0.14410229
55	0x3d95a6a0	0.07307172
56	0xbdab6138	-0.083681524
57	0x3c2292b0	0.009922668
58	0x3d798f78	0.060927838
59	0x3d803076	0.06259243
60	0x3e2ab69f	0.16671227
61	0x3b9503c9	0.0045475704
62	0x3d997a9a	0.074940875
63	0xbcf8347a	-0.03029846
64	0xbd9f104c	-0.0776678
65	0x3d15a17c	0.036530957
66	0x3e0c040a	0.13673416
67	0x3e000dbb	0.12505238
68	0x3dba1f52	0.09088005
69	0xbe91f8d1	-0.28510144
70	0x3df4fd59	0.11962385
71	0x3e594f41	0.21221639
72	0x3c780dd9	0.01514002
73	0xbd38917b	-0.045060616
74	0xbebab54b	-0.3646644
75	0xbd0322b8	-0.032015532
76	0xbb89b638	-0.0042026304
77	0x3c88d27c	0.01670193
78	0xbc7d2bf6	-0.015452376
79	0xbc9cb2c0	-0.019128203
80	0x3a6dc1b1	0.0009069695
81	0xbd02a12c	-0.031891987
82	0x3aeffe00	0.0018309951
83	0xbb15dcab	-0.0022867124
84	0xbc5536d7	-0.013013563
85	0xbd0ee843	-0.03488947
86	0xbc9c718f	-0.019097118
87	0x3d0d544d	0.034504224
88	0x3cd71e1e	0.026259478
89	0x3c98791e	0.01861244
90	0xbc225721	-0.009908468
91	0xbcb0f1bb	-0.021599641
92	0xbcbe151c	-0.023203425
93	0xbcd75a75	-0.02628825
94	0xbbac7070	-0.005262427
95	0xbc943fa9	-0.018096762
96	0x3cb94390	0.022615224
97	0x3aef5200	0.0018258691
98	0x3c939568	0.018015578
99	0xbcb9b2ea	-0.02266832
100	0xbc079f20	-0.008277684
101	0x3cfbf2ea	0.030755479
102	0x3ba1a6c0	0.004933208
103	0xbbcdb3a0	-0.0062775165
104	0xbd091237	-0.033464637
105	0xbc318bc8	-0.010836549
106	0x3be63828	0.0070257373
107	0xbd1f6cf1	-0.038922254
108	0xbc41c9c0	-0.011827886
109	0xbc0c7782	-0.008573415
110	0x3cded2b2	0.027200077
111	0x3d1025df	0.035192367
112	0xbc885314	-0.016641177
113	0xbc30098c	-0.010744464
114	0x3cbb1920	0.022839129
115	0xbc533f24	-0.012893472
116	0xbbe2d0e4	-0.0069218744
117	0xbce59702	-0.028026108
118	0x3c6d6e2c	0.014491599
119	0xbbe414c0	-0.0069604814
120	0xbc19c092	-0.009384291
121	0x3cddce66	0.027075958
122	0x3cabdbfa	0.020978916
123	0x3cc4383e	0.0239526
124	0x3be12be8	0.006871689
125	0x3e509c82	0.20372203
126	0x3cb66bb5	0.022268156
127	0x3c54d20a	0.01298953
128	0x3d4f088c	0.05054526
129	0x3e84e608	0.2595675
130	0x3db0d7d0	0.08634913
131	0xbcb4418e	-0.022003915
132	0xbe6e1ac2	-0.23252395
133	0x3bfe5b57	0.0077623534
134	0x3dbd24b5	0.09235517
135	0xbce8bb56	-0.028409641
136	0x3d426ef1	0.047469083
137	0xbde720f7	-0.112855844
138	0xbbb6496c	-0.005562952
139	0x3d68fa73	0.056879472
140	0x3c91aedf	0.01778358
141	0x3e13a802	0.14419559
142	0xbbf09e27	-0.007343072
143	0xbe67fbe3	-0.22654681
144	0x3d5305a1	0.05151904
145	0x3e2001be	0.15625665
146	0x3dfbe513	0.12299552
147	0xbd6c9993	-0.057763647
148	0xbea9b148	-0.33143067
149	0xbc4e3367	-0.012585497
150	0x3dc7b7e0	0.09751868
151	0xbdf425f2	-0.119213
152	0x3c455234	0.0120435245
153	0xbe54b9b8	-0.20773971
154	0xbcfa6aa9	-0.030568438
155	0xbd8e7b25	-0.06957082
156	0x3cad0a7f	0.021123169
157	0xbe0f6d48	-0.14006531
158	0xbe031741	-0.1280184
159	0xbd2045be	-0.03912901
160	0xbd2c4b8b	-0.04206423
161	0xbe1aa6e8	-0.15102732
162	0xbcbb4c77	-0.02286361
163	0xbdeb4cd4	-0.11489263
164	0xbe005846	-0.12533674
165	0xbd53802d	-0.05163591
166	0xbe1ae244	-0.15125376
167	0xbe283e41	-0.16429998
168	0x3e0f8859	0.14016856
169	0xbdcaafb3	-0.09896793
170	0x3e04a273	0.12952594
171	0x3d6b25e9	0.0574092
172	0x3dbbba55	0.091663994
173	0xbd252c0f	-0.04032522
174	0xbbb025b7	-0.0053755897
175	0xbdbf1b68	-0.09331399
176	0x3d85d0ed	0.0653399
177	0x3e130b7b	0.14359848
178	0x3e18ce90	0.14922547
179	0xbd1161cd	-0.03549366
180	0x3e28d3dd	0.1648707
181	0x3d744236	0.059633456
182	0x3d477008	0.048690826
183	0x3d863b99	0.06554336
184	0x3d2c382b	0.042045753
185	0x3db128a8	0.08650333
186	0xbd3c7060	-0.046005607
187	0xbbb51b08	-0.005526904
188	0x3d17903a	0.03700278
189	0x3d758528	0.05994144
190	0xbca58345	-0.020204196
191	0xbdd416d8	-0.103559196
192	0xbe44cc5f	-0.19218586
193	0x3d38cdd6	0.045118175
194	0x3a1180a7	0.0005550482
195	0x3de64344	0.11243299
196	0x3d89e965	0.067339696
197	0x3d99b58b	0.0750533
198	0x3bdc4058	0.0067215376
199	0x3d482665	0.04886474
200	0x3e1cf445	0.15327556
201	0xbdaa8d42	-0.08327724
202	0x3d2629bf	0.040567156
203	0x3cd75aee	0.026288476
204	0x3e27c6de	0.16384456
205	0x3e310da0	0.17290354
206	0xbde4d1c1	-0.1117282
207	0xbdf4882a	-0.11940034
208	0xbe8893c6	-0.26675242
209	0xbcb5de63	-0.022200769
210	0x3cf9a553	0.03047434
211	0xbe0c9f7f	-0.13732718
212	0xbe71275d	-0.23550172
213	0xbef50bcc	-0.47860563
214	0xbee64271	-0.44972566
215	0xbd513955	-0.051080067
216	0xbeba58b6	-0.36395806
217	0xbca866fe	-0.020556923
218	0xbdd21cf9	-0.10259432
219	0x3bfe6f74	0.007764751
220	0x3cb4053f	0.021975158
221	0xbe185b54	-0.14878589
222	0x3ccb45e0	0.024813592
223	0xbd9de6ce	-0.07710038
224	0xbcccffbb	-0.025024286
225	0x3be2f28c	0.0069258865
226	0x3b85948b	0.0040765456
227	0x3ce9b2c4	0.028527625
228	0xbc976ccc	-0.018484496
229	0x3d50e2ac	0.05099742
230	0x3d17e589	0.037084136
231	0xbd080a24	-0.033212796
232	0xbccae6da	-0.024768282
233	0xbcd48663	-0.025942987
234	0xbd74428b	-0.059633773
235	0xbd56a3c5	-0.052402277
236	0x3c4fc1e7	0.012680507
237	0x3cb5e238	0.022202596
238	0x3cfe8631	0.031069847
239	0x3cc17cb3	0.023619032
240	0x3c766fac	0.015041273
241	0xbcec0856	-0.028812569
242	0xbd1f0dcf	-0.03883153
243	0xbcad5380	-0.02115798
244	0xbbcd6594	-0.0062682126
245	0x3cba4f50	0.022742897
246	0x3b639f80	0.003473252
247	0xbd13902f	-0.036026176
248	0x3cdd6b32	0.027028654
249	0x3cba8192	0.022766862
250	0xbc7f0207	-0.015564448
251	0x3bef4a2f	0.0073025445
252	0xbcd840e8	-0.026398137
253	0xbcceba15	-0.025235215
254	0xbd1ea94b	-0.03873567
255	0xbc71b9fa	-0.014753813

fc1.bias f4 [120]
0	0x3e8557e1	0.2604361
1	0xbd2c39f5	-0.04204746
2	0xbd1e2204	-0.03860666
3	0xbcc2ab8c	-0.02376344
4	0x3e201d14	0.15636092
5	0xbe249d9c	-0.16075748
6	0xbebbbf1c	-0.36669242
7	0xbc9b4f77	-0.01895879
8	0xbcb395c4	-0.021922
9	0x3aa9e52d	0.0012961976
10	0xbe2592ec	-0.16169327
11	0x3e6d51fc	0.23175806
12	0x3f46ff03	0.77732867
13	0x3cbe18d5	0.0232052
14	0xbcafba47	-0.021451129
15	0xbd8242b1	-0.063603766
16	0xba8c8e22	-0.0010723511
17	0x3e016186	0.12634858
18	0xbcaa6934	-0.020802118
19	0xbd955207	-0.07291036
20	0xbf02a0b8	-0.5102649
21	0x3e4737c1	0.19454862
22	0x3ea97275	0.33095136
23	0xbe021252	-0.12702301
24	0xbd767220	-0.06016743
25	0x3cae16ca	0.021251101
26	0xbb732129	-0.0037098622
27	0xbd64e536	-0.055882655
28	0x3f0be75b	0.54649895
29	0xbe7060e2	-0.23474458
30	0x3d23c747	0.039984968
31	0x3e2debdc	0.16984504
32	0xbe1d6d1b	-0.15373652
33	0xbcec922f	-0.0288783
34	0x3e7a39ce	0.24436113
35	0xbcfe35b2	-0.031031463
36	0x3eb3bb95	0.3510405
37	0xbcb147c1	-0.02164066
38	0x3dd7d86e	0.105393276
39	0x3dcf8e78	0.10134596
40	0x3d925531	0.07145155
41	0x3e057e0a	0.13036361
42	0x3eb10c1a	0.34579545
43	0x3c22bf05	0.009933238
44	0xbd8d368c	-0.068951696
45	0x3cbd9cb0	0.023146003
46	0x3e16f5de	0.14742228
47	0x3d6dc117	0.058045473
48	0x3d677dec	0.056516573
49	0x3e9b3155	0.30311075
50	0xbd3b5f0e	-0.045744948
51	0x3a32eba8	0.00068252767
52	0x3e93c678	0.28862357
53	0x3c527233	0.01284461
54	0xbcf9870f	-0.030459909
55	0xbdabe181	-0.08392621
56	0xbbdddeff	-0.006770968
57	0x3e0a56d1	0.1350968
58	0xbea03883	-0.31293115
59	0x3e25c3b2	0.16187933
60	0x3e98c86f	0.2984042
61	0x3da2ef0e	0.07955752
62	0xbd0b0c45	-0.033947248
63	0x3f29ef48	0.6638074
64	0xbd36e3b7	-0.04465076
65	0xbc205075	-0.009784807
66	0xbd517379	-0.051135514
67	0xbd1818a9	-0.037132893
68	0x3ee2d1bf	0.4430065
69	0x3e967140	0.29383278
70	0x3df6b0e6	0.120454594
71	0xbe9bbe33	-0.30418548
72	0xbcb09d63	-0.021559423
73	0xbd4d6f6e	-0.050155096
74	0x3ee5212f	0.4475188
75	0x3f1e0845	0.6173137
76	0xbd53febf	-0.051756617
77	0xbd81a2d6	-0.063298866
78	0x3d385888	0.045006305
79	0xbd414bf0	-0.04719156
80	0xbd4e961e	-0.05043613
81	0xbc2359ed	-0.00997017
82	0x3cab0335	0.020875553
83	0x3c0bf4f7	0.008542291
84	0x3ef8c414	0.48587096
85	0xbc83fd68	-0.016112044
86	0x3d11fc2c	0.03564088
87	0xbcb2cdb0	-0.021826595
88	0xbcd6f2ac	-0.026238762
89	0xbce5015d	-0.027954752
90	0xbd2e91cd	-0.042619515
91	0x3c66aae5	0.01407883
92	0xbd6cc564	-0.057805434
93	0xbc18ab73	-0.00931822
94	0xbc9fde3b	-0.019515147
95	0xbd0312fb	-0.032000523
96	0x3e53e31e	0.20692107
97	0xbd11bff8	-0.035583466
98	0x3f09f631	0.53891283
99	0x3c515175	0.0127757685
100	0xbe2a85b7	-0.1665257
101	0xbe3ae981	-0.18253137
102	0xbd641a8b	-0.055689376
103	0xbd335ccd	-0.043789674
104	0xbc970f28	-0.018439844
105	0xbd58856d	-0.05286162
106	0xbbae76f1	-0.0053242375
107	0x3e169486	0.14705095
108	0xbd06d38f	-0.0329166
109	0x3dc85047	0.09780937
110	0x3de259fd	0.1105232
111	0xbd9249f7	-0.07143014
112	0x3f16064a	0.58603346
113	0xbe01d484	-0.12678725
114	0x3d7234a0	0.05913222
115	0xbdb11ede	-0.086484656
116	0xbb446494	-0.0029967176
117	0xbe0b2984	-0.13590056
118	0xbd00faaa	-0.031489052
119	0xbc26164a	-0.01013715

fc2.weight f4 [84, 120]
0	0x3dddf267	0.1083725
1	0xbd97944b	-0.074013315
2	0x3d2f3ba0	0.042781472
3	0x3d1c71d4	0.038194492
4	0x3e80aa0e	0.2512974
5	0xbe18fb1a	-0.14939538
6	0x3d9579c1	0.07298613
7	0xbc35555a	-0.011067713
8	0x3d00f690	0.03148514
9	0xbe174937	-0.14774023
10	0x3c3dd06f	0.011585339
11	0xbdfba365	-0.122870244
12	0xbe75eeae	-0.2401683
13	0x3c6add86	0.014335042
14	0x3d3ad293	0.045610975
15	0x3d049c46	0.032375596
16	0x3d5df12a	0.05418507
17	0xbe0cbfd5	-0.13745053
18	0xbd667dc3	-0.05627228
19	0xbcb66dce	-0.022269156
20	0x3cdbb2d5	0.026818672
21	0x3e14c8b3	0.14529686
22	0xbe3caedb	-0.18426077
23	0x3d8471f1	0.06467045
24	0x3e3bf4b0	0.1835506
25	0x3e249bce	0.1607506
26	0x3d058e29	0.032606278
27	0xbd98b6f8	-0.074567735
28	0x3e20b0fa	0.15692511
29	0x3d51fc84	0.05126621
30	0xbe0fca45	-0.14042003
31	0xbde8ca85	-0.113667525
32	0xbe527998	-0.20554197
33	0xbc44fe51	-0.012023524
34	0xbe7a9438	-0.24470603
35	0x3c957ecb	0.018248936
36	0xbdd01c76	-0.101616785
37	0xbe180004	-0.14843756
38	0xbdb734f6	-0.08945648
39	0x3dd6b497	0.104836635
40	0x3dcfb619	0.10142154
41	0x3c566bf9	0.013087266
42	0x3e501441	0.20320226
43	0xbd6563a9	-0.056003246
44	0xbd69a2cd	-0.057040025
45	0xbe574597	-0.2102264
46	0xbe0fb6a1	-0.14034511
47	0x3c9f8f9e	0.019477662
48	0xbcec9a34	-0.028882124
49	0x3e04982c	0.12948674
50	0x3dc2827a	0.09497543
51	0xbd65b2fb	-0.056078892
52	0x3ce895e0	0.028391778
53	0xbc8be227	-0.017075611
54	0xba038d17	-0.00050182774
55	0x3d819e13	0.063289784
56	0x3d4520fe	0.048127167
57	0xbd61671a	-0.055029966
58	0x3cbca8e2	0.023029748
59	0xbe9935be	-0.29923815
60	0x3ddee9d8	0.10884446
61	0x3c797e30	0.015227839
62	0xbc35b0c0	-0.011089504
63	0xbd8ce032	-0.06878699
64	0xbde801b8	-0.11328453
65	0x3d2898d8	0.04116139
66	0xbd94c34f	-0.07263815
67	0xbbfa0900	-0.0076304674
68	0xbe54b750	-0.20773053
69	0x3db24e35	0.08706323
70	0xbd194d2f	-0.037427124
71	0xbd914446	-0.070931
72	0x3e150db3	0.14556007
73	0x3e0ea778	0.13931072
74	0xbe2b6833	-0.16738968
75	0xbd521e57	-0.051298466
76	0xbc70b95f	-0.014692633
77	0x3d45271c	0.048133
78	0xbdcea519	-0.10090084
79	0x3dad272a	0.084547356
80	0x3da61dc7	0.08111148
81	0xbd868c91	-0.0656978
82	0xbceeb8fe	-0.029140946
83	0x3d184e86	0.03718426
84	0x3e18a672	0.14907244
85	0x3da084ff	0.07837867
86	0xbd568b5b	-0.052378993
87	0x3d3f27bb	0.04666875
88	0x3d315c9e	0.043301217
89	0x3da03ff6	0.078246996
90	0x3c93a2cb	0.018021962
91	0xbd4d86ff	-0.05017757
92	0xbda97942	-0.08275081
93	0x3d9f792a	0.07786782
94	0x3d94db3e	0.0726838
95	0xbda13d08	-0.07872969
96	0xbcce336d	-0.025171006
97	0xbcdf53aa	-0.027261574
98	0xbe591b75	-0.2120188
99	0x3dd1e21b	0.10248204
100	0xbe8bdca6	-0.2731678
101	0x3df50502	0.11963846
102	0xbd8d7aea	-0.069082096
103	0x3cbea279	0.023270832
104	0xbdaa4adf	-0.08315062
105	0x3b702243	0.0036641515
106	0x3d6b65b2	0.05747003
107	0x3e734726	0.2375761
108	0x3ce317d4	0.027721323
109	0xbe98b6ad	-0.2982687
110	0xbc32fa58	-0.010923944
111	0x3dbaf3d7	0.0912854
112	0x3da63bfc	0.0811691
113	0xbb74aea5	-0.0037335542
114	0x3cdf0ea2	0.027228657
115	0x3df1a600	0.1179924
116	0xbd821f08	-0.06353575
117	0x3e07d8f0	0.13266349
118	0x3e4b5736	0.19857487
119	0x3d89a030	0.067200065
120	0xbe2de35d	-0.16981263
121	0x3d398e09	0.04530147
122	0xbd9fefef	-0.078094356
123	0xbd0861f0	-0.033296525
124	0x3ca0d386	0.019632112
125	0xbe89c99b	-0.26911625
126	0x3ce6a0a9	0.02815278
127	0x3d419d44	0.04726912
128	0xbda70cc2	-0.0815673
129	0xbe07f127	-0.13275586
130	0xbd9bcda0	-0.07607579
131	0xbea80c59	-0.3282192
132	0x3e06c38b	0.13160531
133	0xbd021d0f	-0.031765994
134	0x3d186c41	0.037212614
135	0xbd9ccd5e	-0.07656358
136	0x3db1902b	0.08670076
137	0xbb707688	-0.0036691744
138	0xbda336d2	-0.079694405
139	0xbd7c9a81	-0.061670784
140	0x3c8ddf18	0.017318293
141	0xbddd1897	-0.10795706
142	0x3df005ad	0.117198326
143	0xbea4a594	-0.32157576
144	0xbb288b64	-0.002571785
145	0xbc527fa1	-0.012847812
146	0x3d9a11d5	0.075229324
147	0x3daa99df	0.0833013
148	0x3c5e66bf	0.013574301
149	0xbcc6c937	-0.024265869
150	0xbdbc1254	-0.09183183
151	0xbc5b2e6d	-0.013377768
152	0x3da79001	0.081817634
153	0xbd03bb23	-0.03216089
154	0x3de9b005	0.11410526
155	0xbc44da6a	-0.012014965
156	0xbdebb99f	-0.11510014
157	0xbd307e1b	-0.043089014
158	0xbe0e8aad	-0.13920088
159	0xbd0b8654	-0.034063652
160	0xbcb8b3fc	-0.02254676
161	0xbc0d45a7	-0.008622563
162	0x3d83228a	0.06403072
163	0xbd862c3d	-0.065514065
164	0x3c187235	0.009304573
165	0xbe354184	-0.17700773
166	0xbe6e91e4	-0.2329784
167	0xbdfd6794	-0.123732716
168	0x3c7d2ecb	0.015453051
169	0x3e30cb5d	0.17265077
170	0xbcf19b10	-0.029492885
171	0x3d1fbc89	0.03899816
172	0x3a8a89be	0.0010569615
173	0xbd260c83	-0.040539276
174	0xbd0ffa2b	-0.03515069
175	0x3d9db20a	0.07699974
176	0x3d2347d1	0.03986341
177	0x3d7d0b89	0.06177858
178	0xbde7a7e6	-0.11311321
179	0xbe10ead6	-0.14152083
180	0x3dc4427c	0.095829934
181	0xb942199c	-0.00018510822
182	0xbd289991	-0.041162077
183	0xbd3386a9	-0.043829594
184	0x3e6bc7fb	0.23025505
185	0xbda77224	-0.081760675
186	0xbdd7c872	-0.10536279
187	0x3c1f2fc5	0.009715979
188	0x3e44e65f	0.19228505
189	0xbdd5e8c2	-0.10444786
190	0xbd8adca4	-0.06780365
191	0x3e44b2de	0.19208857
192	0xbcdc0d0e	-0.026861694
193	0xbdebe349	-0.115179606
194	0x3d4b99cf	0.04970723
195	0x3d3167d8	0.043311924
196	0x3d0b3f03	0.03399564
197	0x3daa880e	0.083267316
198	0xbdb6aedf	-0.08920073
199	0x3cdf2222	0.027237955
200	0x3c49c48f	0.01231493
201	0x3d1796b0	0.03700894
202	0xbdb82087	-0.08990579
203	0xbcf08409	-0.029359834
204	0xbdcc5b75	-0.099783815
205	0x3bb68601	0.0055701737
206	0xbe7a9c36	-0.24473652
207	0xbe162943	-0.14664178
208	0x3d03407f	0.03204393
209	0x3d5ea7a2	0.054359086
210	0xbd9e78c2	-0.077378765
211	0x3dae79ee	0.0851935
212	0x3c498fc0	0.012302339
213	0xbd7bfac9	-0.061518464
214	0xbceff0d1	-0.029289635
215	0xbc861372	-0.016366694
216	0x3d4b08f8	0.0495691
217	0xbd6375a8	-0.055532128
218	0xbd039232	-0.032121845
219	0xbcea4e83	-0.02860189
220	0xbdbde378	-0.09271902
221	0xbddc6761	-0.107619055
222	0xbd65f6c6	-0.056143545
223	0x3d45cb4f	0.048289593
224	0xbc3288a7	-0.010896838
225	0xbc1f5e56	-0.009727081
226	0x3da7f318	0.08200663
227	0x3cbf7665	0.023371885
228	0x3d876d7d	0.0661268
229	0x3d2f1c66	0.042751692
230	0xbe26f4ad	-0.16304274
231	0x3df1b022	0.11801173
232	0xbde71f74	-0.11285296
233	0x3e5a2ed0	0.2130692
234	0xbd55e182	-0.052217014
235	0x3a891e7d	0.0010461357
236	0xbd8fdf96	-0.070250675
237	0xbdd83128	-0.10556251
238	0x3e79a424	0.24379021
239	0x3d46ba00	0.048517227
240	0x3d9d0518	0.07666987
241	0x3d3e9658	0.046530098
242	0xbd1fe926	-0.039040707
243	0xbc81c23c	-0.015839688
244	0xbdbda8f3	-0.0926074
245	0xbe03fb0c	-0.12888736
246	0x3e09209a	0.13391343
247	0xbda1d30a	-0.07901581
248	0x3d126c88	0.035748035
249	0xbd1c71e3	-0.03819455
250	0x3e1f12cc	0.15534514
251	0x3e04e3e7	0.12977563
252	0xbd54b50e	-0.05193048
253	0xbdabd8ee	-0.083909854
254	0x3c54f198	0.012997054
255	0x3ba8e128	0.005153794

fc2.bias f4 [84]
0	0x3b6c1d4b	0.0036028202
1	0x3ec7e1e8	0.3903954
2	0xbd3d5cd0	-0.04623109
3	0xbd985387	-0.074378066
4	0x3e50f709	0.20406736
5	0x3e86fbd8	0.26364017
6	0x3eccea62	0.4002257
7	0xba22fe51	-0.00062177057
8	0xbdf4bf45	-0.11950544
9	0x3ec264e2	0.37967592
10	0x3f00e9dc	0.5035684
11	0x3ef9efbf	0.48815724
12	0x3dca6116	0.09881799
13	0x3e4deb1b	0.20109217
14	0x3e3e2683	0.18569379
15	0x3e9a78d1	0.301703
16	0x3e07f8f7	0.13278566
17	0x3eb94da3	0.36192045
18	0x3f096470	0.5366888
19	0x3efdee9c	0.49596107
20	0x3e3647db	0.17800848
21	0xbd9d068c	-0.07667264
22	0x3f26be3b	0.6513402
23	0x3cb6a7ce	0.022296812
24	0x3db415d4	0.08793226
25	0x3e5113ce	0.20417711
26	0xbe1848a2	-0.14871457
27	0xbc15743a	-0.009121949
28	0xbd41a52c	-0.04727666
29	0x3c649d73	0.013953554
30	0x3e96b4b2	0.29434735
31	0x3e9e24a2	0.30887324
32	0xbca1ff0d	-0.019774938
33	0xbdbb112a	-0.09134133
34	0x3d9d431b	0.07678815
35	0xbe738e7f	-0.23784827
36	0x3f02fb49	0.5116468
37	0x3f2fd483	0.6868364
38	0xbd4d1c2f	-0.050075706
39	0x3e28aef9	0.16472997
40	0x3e8d31d6	0.27577084
41	0x3d80e871	0.06294335
42	0xbe367c18	-0.17820776
43	0x3e113008	0.14178479
44	0x3f0539be	0.5204123
45	0x3ef0f2e6	0.47060317
46	0xbeb9a700	-0.36260223
47	0xbe167429	-0.14692749
48	0x3d9fda91	0.0780536
49	0x3cfaf68e	0.030635145
50	0x3e539eae	0.20666
51	0x3ed91bd5	0.42404047
52	0x3e6bebdf	0.23039196
53	0x3de86157	0.11346691
54	0xbd57ff38	-0.05273363
55	0xbd8040c8	-0.06262356
56	0xbb9e5805	-0.00483227
57	0x3c9d997a	0.019238222
58	0x3e5a5bbc	0.21324056
59	0x3e22a245	0.15882213
60	0x3e2a649e	0.16639945
61	0xbc776e1a	-0.015101934
62	0xb9ddbc1e	-0.00042292563
63	0x3cc76a66	0.024342727
64	0xbd0bded9	-0.03414807
65	0xbe0f91e8	-0.14020503
66	0x3e8d5187	0.27601263
67	0x3de184a1	0.11011625
68	0xbe0a9366	-0.1353279
69	0xbdcef442	-0.10105182
70	0x3f143589	0.5789419
71	0x3ea13c6d	0.31491414
72	0xbe3754d2	-0.1790345
73	0xbaeee510	-0.0018226225
74	0x3e405217	0.18781315
75	0x3eb37515	0.35050264
76	0x3ea39dad	0.31956235
77	0xbedca719	-0.43096235
78	0x3e11d40e	0.14241049
79	0x3e20c91b	0.15701716
80	0x3ecf68f9	0.40509775
81	0xbe0188c9	-0.12649836
82	0x3e5b391f	0.21408509
83	0xbeb53197	-0.35389397

fc3.weight f4 [10, 84]
0	0x3d0549d8	0.032541126
1	0x3e44f172	0.19232729
2	0x3c465947	0.012106246
3	0xbe832a22	-0.25618082
4	0xbb47c3a4	-0.00304816
5	0x3e1f95e4	0.15584522
6	0x3cdaaefa	0.026694763
7	0xbeaa7140	-0.33289528
8	0x3bd3cca8	0.006463606
9	0xbe944fa9	-0.28967026
10	0xbdd344d6	-0.10315864
11	0xbe9f11ee	-0.31068367
12	0xbe538d3b	-0.20659344
13	0x3d8770cc	0.06613311
14	0x3ccc4c3c	0.024938695
15	0x3d423b68	0.047419935
16	0x3d5727b3	0.052528095
17	0xbef50696	-0.47856587
18	0xbe492215	-0.19641908
19	0xbc2bfc4b	-0.010497163
20	0xbe120253	-0.14258699
21	0x3db45c9d	0.08806727
22	0xbe429d31	-0.19005276
23	0x3e13a2c4	0.14417559
24	0x3d1b6eab	0.037947338
25	0x3e0db823	0.13839774
26	0xbbfae2fd	-0.0076564536
27	0x3d7050da	0.058670856
28	0xbe35d31f	-0.17756318
29	0xbd1e4281	-0.03863764
30	0xbe0dd8e0	-0.13852262
31	0xbebc1582	-0.3673516
32	0x3daf6cf3	0.08565702
33	0x3dbc630d	0.0919858
34	0x3cc4c7b4	0.024021007
35	0x3c9067fd	0.01762771
36	0xbe6b0d97	-0.22954403
37	0xbe49383e	-0.19650361
38	0xbd2c0ff0	-0.042007387
39	0xbdf436b6	-0.11924498
40	0x3c2126f4	0.009835947
41	0x3dbb6ce7	0.09151631
42	0x3d545058	0.051834434
43	0x3deb2e93	0.11483493
44	0xbe858dc5	-0.26084724
45	0x3b548566	0.0032428144
46	0x3df254c5	0.11832575
47	0xbe1a0eb5	-0.15044673
48	0xbca1caa7	-0.019749952
49	0xbb0a15ef	-0.0021070202
50	0x3dc367b4	0.09541264
51	0xbc1a5661	-0.009420008
52	0xbdaf4864	-0.08558729
53	0x399fc71e	0.00030475197
54	0xbde71c02	-0.11284639
55	0x3de037eb	0.109481655
56	0xbe3668e7	-0.17813455
57	0x3cc9aece	0.024619486
58	0x3d1f08d3	0.038826775
59	0xbe2a77f2	-0.16647318
60	0xbdbdd01c	-0.09268209
61	0xbe01b766	-0.12667617
62	0xbd686157	-0.056733456
63	0xbe826923	-0.25470838
64	0xbddefa6d	-0.10887609
65	0x3de06a8f	0.109578244
66	0x3dd0f7e6	0.10203533
67	0xbe71659f	-0.23573922
68	0xbcfa22df	-0.030534206
69	0x3d9ff7ec	0.07810959
70	0x3d0d3042	0.03446985
71	0xbdecfe6c	-0.115719646
72	0xbd066696	-0.032812677
73	0x3dc776e7	0.09739476
74	0xbe0c40c0	-0.13696575
75	0x3de45561	0.11149097
76	0xbe11817c	-0.1420955
77	0x3dc6dfdb	0.09710666
78	0x3e136d15	0.1439708
79	0xbce38b83	-0.027776485
80	0x3d6b1560	0.05739343
81	0xbbc3db8e	-0.0059771007
82	0x3d9cc491	0.076546796
83	0x3de5a0bb	0.112122975
84	0x3e146ce4	0.14494663
85	0xbea29058	-0.3175075
86	0xbea9e9f9	-0.3318632
87	0x3e167bc0	0.14695644
88	0x3d9e8a1b	0.07741185
89	0xbe080569	-0.13283314
90	0xbdc21e60	-0.0947845
91	0xbda061de	-0.07831167
92	0x3d3d63d5	0.046237785
93	0xbe916c6e	-0.28403038
94	0xbdc2e74a	-0.09516771
95	0xbe09a30b	-0.13441102
96	0x3c6061df	0.013695209
97	0xbd581765	-0.052756686
98	0x3d3903f5	0.04516979
99	0xbe511531	-0.2041824
100	0xbe854b93	-0.2603422
101	0x3d1fcda1	0.039014462
102	0xbdd428e8	-0.10359365
103	0xbeaefc88	-0.3417704
104	0xbd5f23cb	-0.054477494
105	0x3e027e8f	0.12743591
106	0xbe967c71	-0.29391816
107	0xbc75d367	-0.0150040155
108	0xbe658670	-0.22414565
109	0xbea4ce8a	-0.32188827
110	0x3db2d99d	0.08732913
111	0x3e0e2259	0.1388029
112	0xbe5ed075	-0.21759208
113	0xbe2f941a	-0.1714634
114	0x3cb53a62	0.022122566
115	0x3e06a1ea	0.13147703
116	0x3e3dd202	0.18537143
117	0xbe0fcedd	-0.14043756
118	0x3e2cb3c5	0.16865452
119	0x3e4eaca9	0.20183052
120	0xbd546e19	-0.05186281
121	0xbd6b94bb	-0.057514887
122	0xbe2bb422	-0.16767934
123	0xbb9774cc	-0.0046220776
124	0xbd4c4a3d	-0.049875487
125	0xbda460bb	-0.080262624
126	0xbdf34a76	-0.11879437
127	0x3de0b089	0.109711714
128	0xbedb7df9	-0.42869547
129	0xbdc7f6e3	-0.09763887
130	0x3e0f7bbb	0.14012043
131	0xbd46b586	-0.048512958
132	0x3d847f6e	0.06469618
133	0xbdb76e57	-0.089565925
134	0xbe28b928	-0.16476882
135	0xbe1cf0f9	-0.15326299
136	0x3e090107	0.13379298
137	0xbe2f0ab2	-0.17093924
138	0xbd9918f1	-0.0747546
139	0xbd56b66a	-0.052420057
140	0xbe5b04d9	-0.21388568
141	0xbea7e5e1	-0.3279257
142	0x3cef94ef	0.029245822
143	0x3bb3a342	0.0054821083
144	0xbd94fc81	-0.07274724
145	0xbe2e0808	-0.16995251
146	0x3e188a19	0.1489643
147	0x3cfb68e9	0.030689673
148	0xbe3eb998	-0.18625486
149	0xbf12813b	-0.5722844
150	0xbeb62673	-0.3557621
151	0x3d95ee00	0.073207855
152	0x3bb86787	0.005627576
153	0x3dec6436	0.11542551
154	0xbd852e6e	-0.065029964
155	0xbe246c85	-0.16057022
156	0x3ddfcbe2	0.109275594
157	0xbd355ccc	-0.04427795
158	0xbd9b498c	-0.07582387
159	0xbe1785e0	-0.14797163
160	0xbe26707c	-0.16253847
161	0x3db5b5e7	0.08872586
162	0xbe8eb56c	-0.2787279
163	0x3ca8d9a1	0.020611586
164	0xbe3fa8b4	-0.18716699
165	0xbd4731e2	-0.048631556
166	0xbe238bc7	-0.1597129
167	0x3c8dc545	0.01730598
168	0xb8b8921a	-8.801017e-05
169	0x3dbfa22b	0.09357103
170	0xbe19494f	-0.14969371
171	0x3db2199a	0.08696289
172	0xbe029cae	-0.12755081
173	0x3d99b877	0.07505887
174	0xbdda641e	-0.10663627
175	0xbe066dbd	-0.131278
176	0xbd842def	-0.06454074
177	0x3ccd5fda	0.02507012
178	0xbc81acfa	-0.015829552
179	0x3e224f22	0.158505
180	0xbe7d2f6b	-0.2472512
181	0xbbaf349a	-0.0053468468
182	0xbe155480	-0.14583015
183	0x3e0c6435	0.13710101
184	0x3e27fc9f	0.16404961
185	0x3d6ed489	0.058308158
186	0x3dabb517	0.083841495
187	0xbd10c311	-0.03534228
188	0xbe64157b	-0.22273819
189	0xbdd7e07f	-0.10540866
190	0x3c74bd66	0.014937734
191	0xbe938478	-0.28812003
192	0xbce72646	-0.028216492
193	0x3e2b40ee	0.16723987
194	0x3e54f1d1	0.2079537
195	0x3d8421e6	0.06451778
196	0xbe0dca6b	-0.13846748
197	0xbdd72a99	-0.10506172
198	0xbc90d67d	-0.017680401
199	0x3e4fa70b	0.20278566
200	0x3df0b263	0.117527746
201	0x3dd98368	0.10620767
202	0xbe125f3f	-0.14294146
203	0xbdc62a47	-0.096760325
204	0xbcd1fa17	-0.025631947
205	0xbd9c2f4f	-0.07626211
206	0x3e47675d	0.19473024
207	0xbdbde597	-0.092723064
208	0x3de2a5d7	0.11066788
209	0xbcdf1fd7	-0.027236862
210	0xbcf46a2c	-0.029835783
211	0xbe3296e2	-0.1744037
212	0x3dd32c49	0.10311181
213	0xbd281cce	-0.041043095
214	0x3d0055b9	0.03133175
215	0x3e7e77ac	0.24850339
216	0x3e06eddf	0.13176678
217	0x3ccf3373	0.025293088
218	0x3d532580	0.051549435
219	0x3e1741bf	0.14771174
220	0x3b8d07c0	0.0043039024
221	0x3c69dc70	0.014273748
222	0x3bc8221f	0.006107583
223	0x3e20b2fd	0.15693279
224	0x3e1c5efa	0.15270606
225	0x3d8bcb99	0.068259425
226	0xbdfe6429	-0.12421448
227	0xbe33af5e	-0.17547366
228	0xbce2e9d5	-0.02769939
229	0xbe39cdd7	-0.18144928
230	0xbd4217d2	-0.047385998
231	0xbdba5404	-0.09098056
232	0x3e295a63	0.16538386
233	0x3e5f6328	0.21815169
234	0x3d49d828	0.04927841
235	0xbbc0cdc3	-0.0058839037
236	0xbe42a3b0	-0.19007754
237	0x3d2beb80	0.041972637
238	0x3e1d1e8b	0.15343682
239	0xbe11df9b	-0.14245455
240	0xbc263bbd	-0.010146079
241	0xbd2763af	-0.04086655
242	0xbe6e7b9d	-0.23289342
243	0xbde35bd9	-0.11101503
244	0x3d95cdfa	0.073146775
245	0xbd698f5d	-0.057021488
246	0xbcaa150a	-0.020761985
247	0xbd49f1d9	-0.04930291
248	0x3e1dea62	0.15421441
249	0x3d3bbd7c	0.045835003
250	0x3d85a7e5	0.06526164
251	0x3c44461f	0.011979609
252	0xbeb86c66	-0.360202
253	0xbd2f5423	-0.04280485
254	0x3d36a5ad	0.044591594
255	0xbe10baf1	-0.14133812

fc3.bias f4 [10]
0	0xbe8224a7	-0.2541859
1	0xbebc5e54	-0.36790717
2	0xbd04272f	-0.03226393
3	0x3e24f286	0.1610814
4	0x3f0054d9	0.5012947
5	0xbe2d1ec2	-0.16906264
6	0x3ddf1210	0.10892117
7	0xbe0f7f64	-0.1401344
8	0x3df1d861	0.11808849
9	0xbd83f1af	-0.06442582
